{"backend": "tensorflow", "config": {"output_layers": [["dense_1", 0, 0]], "input_layers": [["input_1", 0, 0]], "name": "model_2", "layers": [{"config": {"batch_input_shape": [null, 32, 32, 3], "dtype": "float32", "name": "input_1", "sparse": false}, "name": "input_1", "inbound_nodes": [], "class_name": "InputLayer"}, {"config": {"bias_initializer": {"config": {}, "class_name": "Zeros"}, "data_format": "channels_last", "filters": 32, "kernel_regularizer": {"config": {"l1": 0.0, "l2": 3.9999998989515007e-05}, "class_name": "L1L2"}, "use_bias": false, "kernel_initializer": {"config": {"mode": "fan_in", "distribution": "normal", "seed": null, "scale": 2.0}, "class_name": "VarianceScaling"}, "bias_constraint": null, "bias_regularizer": null, "strides": [1, 1], "kernel_size": [3, 3], "activation": "linear", "kernel_constraint": null, "dilation_rate": [1, 1], "padding": "same", "activity_regularizer": null, "trainable": true, "name": "Conv1"}, "name": "Conv1", "inbound_nodes": [[["input_1", 0, 0, {}]]], "class_name": "Conv2D"}, {"config": {"center": true, "axis": -1, "beta_initializer": {"config": {}, "class_name": "Zeros"}, "gamma_initializer": {"config": {}, "class_name": "Ones"}, "name": "bn_Conv1", "beta_constraint": null, "momentum": 0.999, "beta_regularizer": null, "gamma_constraint": null, "moving_mean_initializer": {"config": {}, "class_name": "Zeros"}, "moving_variance_initializer": {"config": {}, "class_name": "Ones"}, "scale": true, "epsilon": 0.001, "gamma_regularizer": null, "trainable": true}, "name": "bn_Conv1", "inbound_nodes": [[["Conv1", 0, 0, {}]]], "class_name": "BatchNormalization"}, {"config": {"max_value": 6.0, "name": "Conv1_relu", "trainable": true}, "name": "Conv1_relu", "inbound_nodes": [[["bn_Conv1", 0, 0, {}]]], "class_name": "ReLU"}, {"config": {"bias_initializer": {"config": {}, "class_name": "Zeros"}, "data_format": "channels_last", "depthwise_constraint": null, "use_bias": false, "bias_constraint": null, "depth_multiplier": 1, "strides": [1, 1], "kernel_size": [3, 3], "activation": "linear", "bias_regularizer": null, "dilation_rate": [1, 1], "depthwise_initializer": {"config": {"mode": "fan_avg", "distribution": "uniform", "seed": null, "scale": 1.0}, "class_name": "VarianceScaling"}, "padding": "same", "activity_regularizer": null, "trainable": true, "name": "expanded_conv_depthwise", "depthwise_regularizer": {"config": {"l1": 0.0, "l2": 3.9999998989515007e-05}, "class_name": "L1L2"}}, "name": "expanded_conv_depthwise", "inbound_nodes": [[["Conv1_relu", 0, 0, {}]]], "class_name": "DepthwiseConv2D"}, {"config": {"center": true, "axis": -1, "beta_initializer": {"config": {}, "class_name": "Zeros"}, "gamma_initializer": {"config": {}, "class_name": "Ones"}, "name": "expanded_conv_depthwise_BN", "beta_constraint": null, "momentum": 0.999, "beta_regularizer": null, "gamma_constraint": null, "moving_mean_initializer": {"config": {}, "class_name": "Zeros"}, "moving_variance_initializer": {"config": {}, "class_name": "Ones"}, "scale": true, "epsilon": 0.001, "gamma_regularizer": null, "trainable": true}, "name": "expanded_conv_depthwise_BN", "inbound_nodes": [[["expanded_conv_depthwise", 0, 0, {}]]], "class_name": "BatchNormalization"}, {"config": {"max_value": 6.0, "name": "expanded_conv_depthwise_relu", "trainable": true}, "name": "expanded_conv_depthwise_relu", "inbound_nodes": [[["expanded_conv_depthwise_BN", 0, 0, {}]]], "class_name": "ReLU"}, {"config": {"bias_initializer": {"config": {}, "class_name": "Zeros"}, "data_format": "channels_last", "filters": 16, "kernel_regularizer": {"config": {"l1": 0.0, "l2": 3.9999998989515007e-05}, "class_name": "L1L2"}, "use_bias": false, "kernel_initializer": {"config": {"mode": "fan_in", "distribution": "normal", "seed": null, "scale": 2.0}, "class_name": "VarianceScaling"}, "bias_constraint": null, "bias_regularizer": null, "strides": [1, 1], "kernel_size": [1, 1], "activation": "linear", "kernel_constraint": null, "dilation_rate": [1, 1], "padding": "same", "activity_regularizer": null, "trainable": true, "name": "expanded_conv_project"}, "name": "expanded_conv_project", "inbound_nodes": [[["expanded_conv_depthwise_relu", 0, 0, {}]]], "class_name": "Conv2D"}, {"config": {"center": true, "axis": -1, "beta_initializer": {"config": {}, "class_name": "Zeros"}, "gamma_initializer": {"config": {}, "class_name": "Ones"}, "name": "expanded_conv_project_BN", "beta_constraint": null, "momentum": 0.999, "beta_regularizer": null, "gamma_constraint": null, "moving_mean_initializer": {"config": {}, "class_name": "Zeros"}, "moving_variance_initializer": {"config": {}, "class_name": "Ones"}, "scale": true, "epsilon": 0.001, "gamma_regularizer": null, "trainable": true}, "name": "expanded_conv_project_BN", "inbound_nodes": [[["expanded_conv_project", 0, 0, {}]]], "class_name": "BatchNormalization"}, {"config": {"bias_initializer": {"config": {}, "class_name": "Zeros"}, "data_format": "channels_last", "filters": 96, "kernel_regularizer": {"config": {"l1": 0.0, "l2": 3.9999998989515007e-05}, "class_name": "L1L2"}, "use_bias": false, "kernel_initializer": {"config": {"mode": "fan_in", "distribution": "normal", "seed": null, "scale": 2.0}, "class_name": "VarianceScaling"}, "bias_constraint": null, "bias_regularizer": null, "strides": [1, 1], "kernel_size": [1, 1], "activation": "linear", "kernel_constraint": null, "dilation_rate": [1, 1], "padding": "same", "activity_regularizer": null, "trainable": true, "name": "block_1_expand"}, "name": "block_1_expand", "inbound_nodes": [[["expanded_conv_project_BN", 0, 0, {}]]], "class_name": "Conv2D"}, {"config": {"center": true, "axis": -1, "beta_initializer": {"config": {}, "class_name": "Zeros"}, "gamma_initializer": {"config": {}, "class_name": "Ones"}, "name": "block_1_expand_BN", "beta_constraint": null, "momentum": 0.999, "beta_regularizer": null, "gamma_constraint": null, "moving_mean_initializer": {"config": {}, "class_name": "Zeros"}, "moving_variance_initializer": {"config": {}, "class_name": "Ones"}, "scale": true, "epsilon": 0.001, "gamma_regularizer": null, "trainable": true}, "name": "block_1_expand_BN", "inbound_nodes": [[["block_1_expand", 0, 0, {}]]], "class_name": "BatchNormalization"}, {"config": {"max_value": 6.0, "name": "block_1_expand_relu", "trainable": true}, "name": "block_1_expand_relu", "inbound_nodes": [[["block_1_expand_BN", 0, 0, {}]]], "class_name": "ReLU"}, {"config": {"bias_initializer": {"config": {}, "class_name": "Zeros"}, "data_format": "channels_last", "depthwise_constraint": null, "use_bias": false, "bias_constraint": null, "depth_multiplier": 1, "strides": [1, 1], "kernel_size": [3, 3], "activation": "linear", "bias_regularizer": null, "dilation_rate": [1, 1], "depthwise_initializer": {"config": {"mode": "fan_avg", "distribution": "uniform", "seed": null, "scale": 1.0}, "class_name": "VarianceScaling"}, "padding": "same", "activity_regularizer": null, "trainable": true, "name": "block_1_depthwise", "depthwise_regularizer": {"config": {"l1": 0.0, "l2": 3.9999998989515007e-05}, "class_name": "L1L2"}}, "name": "block_1_depthwise", "inbound_nodes": [[["block_1_expand_relu", 0, 0, {}]]], "class_name": "DepthwiseConv2D"}, {"config": {"center": true, "axis": -1, "beta_initializer": {"config": {}, "class_name": "Zeros"}, "gamma_initializer": {"config": {}, "class_name": "Ones"}, "name": "block_1_depthwise_BN", "beta_constraint": null, "momentum": 0.999, "beta_regularizer": null, "gamma_constraint": null, "moving_mean_initializer": {"config": {}, "class_name": "Zeros"}, "moving_variance_initializer": {"config": {}, "class_name": "Ones"}, "scale": true, "epsilon": 0.001, "gamma_regularizer": null, "trainable": true}, "name": "block_1_depthwise_BN", "inbound_nodes": [[["block_1_depthwise", 0, 0, {}]]], "class_name": "BatchNormalization"}, {"config": {"max_value": 6.0, "name": "block_1_depthwise_relu", "trainable": true}, "name": "block_1_depthwise_relu", "inbound_nodes": [[["block_1_depthwise_BN", 0, 0, {}]]], "class_name": "ReLU"}, {"config": {"bias_initializer": {"config": {}, "class_name": "Zeros"}, "data_format": "channels_last", "filters": 24, "kernel_regularizer": {"config": {"l1": 0.0, "l2": 3.9999998989515007e-05}, "class_name": "L1L2"}, "use_bias": false, "kernel_initializer": {"config": {"mode": "fan_in", "distribution": "normal", "seed": null, "scale": 2.0}, "class_name": "VarianceScaling"}, "bias_constraint": null, "bias_regularizer": null, "strides": [1, 1], "kernel_size": [1, 1], "activation": "linear", "kernel_constraint": null, "dilation_rate": [1, 1], "padding": "same", "activity_regularizer": null, "trainable": true, "name": "block_1_project"}, "name": "block_1_project", "inbound_nodes": [[["block_1_depthwise_relu", 0, 0, {}]]], "class_name": "Conv2D"}, {"config": {"center": true, "axis": -1, "beta_initializer": {"config": {}, "class_name": "Zeros"}, "gamma_initializer": {"config": {}, "class_name": "Ones"}, "name": "block_1_project_BN", "beta_constraint": null, "momentum": 0.999, "beta_regularizer": null, "gamma_constraint": null, "moving_mean_initializer": {"config": {}, "class_name": "Zeros"}, "moving_variance_initializer": {"config": {}, "class_name": "Ones"}, "scale": true, "epsilon": 0.001, "gamma_regularizer": null, "trainable": true}, "name": "block_1_project_BN", "inbound_nodes": [[["block_1_project", 0, 0, {}]]], "class_name": "BatchNormalization"}, {"config": {"bias_initializer": {"config": {}, "class_name": "Zeros"}, "data_format": "channels_last", "filters": 144, "kernel_regularizer": {"config": {"l1": 0.0, "l2": 3.9999998989515007e-05}, "class_name": "L1L2"}, "use_bias": false, "kernel_initializer": {"config": {"mode": "fan_in", "distribution": "normal", "seed": null, "scale": 2.0}, "class_name": "VarianceScaling"}, "bias_constraint": null, "bias_regularizer": null, "strides": [1, 1], "kernel_size": [1, 1], "activation": "linear", "kernel_constraint": null, "dilation_rate": [1, 1], "padding": "same", "activity_regularizer": null, "trainable": true, "name": "block_2_expand"}, "name": "block_2_expand", "inbound_nodes": [[["block_1_project_BN", 0, 0, {}]]], "class_name": "Conv2D"}, {"config": {"center": true, "axis": -1, "beta_initializer": {"config": {}, "class_name": "Zeros"}, "gamma_initializer": {"config": {}, "class_name": "Ones"}, "name": "block_2_expand_BN", "beta_constraint": null, "momentum": 0.999, "beta_regularizer": null, "gamma_constraint": null, "moving_mean_initializer": {"config": {}, "class_name": "Zeros"}, "moving_variance_initializer": {"config": {}, "class_name": "Ones"}, "scale": true, "epsilon": 0.001, "gamma_regularizer": null, "trainable": true}, "name": "block_2_expand_BN", "inbound_nodes": [[["block_2_expand", 0, 0, {}]]], "class_name": "BatchNormalization"}, {"config": {"max_value": 6.0, "name": "block_2_expand_relu", "trainable": true}, "name": "block_2_expand_relu", "inbound_nodes": [[["block_2_expand_BN", 0, 0, {}]]], "class_name": "ReLU"}, {"config": {"bias_initializer": {"config": {}, "class_name": "Zeros"}, "data_format": "channels_last", "depthwise_constraint": null, "use_bias": false, "bias_constraint": null, "depth_multiplier": 1, "strides": [1, 1], "kernel_size": [3, 3], "activation": "linear", "bias_regularizer": null, "dilation_rate": [1, 1], "depthwise_initializer": {"config": {"mode": "fan_avg", "distribution": "uniform", "seed": null, "scale": 1.0}, "class_name": "VarianceScaling"}, "padding": "same", "activity_regularizer": null, "trainable": true, "name": "block_2_depthwise", "depthwise_regularizer": {"config": {"l1": 0.0, "l2": 3.9999998989515007e-05}, "class_name": "L1L2"}}, "name": "block_2_depthwise", "inbound_nodes": [[["block_2_expand_relu", 0, 0, {}]]], "class_name": "DepthwiseConv2D"}, {"config": {"center": true, "axis": -1, "beta_initializer": {"config": {}, "class_name": "Zeros"}, "gamma_initializer": {"config": {}, "class_name": "Ones"}, "name": "block_2_depthwise_BN", "beta_constraint": null, "momentum": 0.999, "beta_regularizer": null, "gamma_constraint": null, "moving_mean_initializer": {"config": {}, "class_name": "Zeros"}, "moving_variance_initializer": {"config": {}, "class_name": "Ones"}, "scale": true, "epsilon": 0.001, "gamma_regularizer": null, "trainable": true}, "name": "block_2_depthwise_BN", "inbound_nodes": [[["block_2_depthwise", 0, 0, {}]]], "class_name": "BatchNormalization"}, {"config": {"max_value": 6.0, "name": "block_2_depthwise_relu", "trainable": true}, "name": "block_2_depthwise_relu", "inbound_nodes": [[["block_2_depthwise_BN", 0, 0, {}]]], "class_name": "ReLU"}, {"config": {"bias_initializer": {"config": {}, "class_name": "Zeros"}, "data_format": "channels_last", "filters": 24, "kernel_regularizer": {"config": {"l1": 0.0, "l2": 3.9999998989515007e-05}, "class_name": "L1L2"}, "use_bias": false, "kernel_initializer": {"config": {"mode": "fan_in", "distribution": "normal", "seed": null, "scale": 2.0}, "class_name": "VarianceScaling"}, "bias_constraint": null, "bias_regularizer": null, "strides": [1, 1], "kernel_size": [1, 1], "activation": "linear", "kernel_constraint": null, "dilation_rate": [1, 1], "padding": "same", "activity_regularizer": null, "trainable": true, "name": "block_2_project"}, "name": "block_2_project", "inbound_nodes": [[["block_2_depthwise_relu", 0, 0, {}]]], "class_name": "Conv2D"}, {"config": {"center": true, "axis": -1, "beta_initializer": {"config": {}, "class_name": "Zeros"}, "gamma_initializer": {"config": {}, "class_name": "Ones"}, "name": "block_2_project_BN", "beta_constraint": null, "momentum": 0.999, "beta_regularizer": null, "gamma_constraint": null, "moving_mean_initializer": {"config": {}, "class_name": "Zeros"}, "moving_variance_initializer": {"config": {}, "class_name": "Ones"}, "scale": true, "epsilon": 0.001, "gamma_regularizer": null, "trainable": true}, "name": "block_2_project_BN", "inbound_nodes": [[["block_2_project", 0, 0, {}]]], "class_name": "BatchNormalization"}, {"config": {"name": "block_2_add", "trainable": true}, "name": "block_2_add", "inbound_nodes": [[["block_1_project_BN", 0, 0, {}], ["block_2_project_BN", 0, 0, {}]]], "class_name": "Add"}, {"config": {"bias_initializer": {"config": {}, "class_name": "Zeros"}, "data_format": "channels_last", "filters": 144, "kernel_regularizer": {"config": {"l1": 0.0, "l2": 3.9999998989515007e-05}, "class_name": "L1L2"}, "use_bias": false, "kernel_initializer": {"config": {"mode": "fan_in", "distribution": "normal", "seed": null, "scale": 2.0}, "class_name": "VarianceScaling"}, "bias_constraint": null, "bias_regularizer": null, "strides": [1, 1], "kernel_size": [1, 1], "activation": "linear", "kernel_constraint": null, "dilation_rate": [1, 1], "padding": "same", "activity_regularizer": null, "trainable": true, "name": "block_3_expand"}, "name": "block_3_expand", "inbound_nodes": [[["block_2_add", 0, 0, {}]]], "class_name": "Conv2D"}, {"config": {"center": true, "axis": -1, "beta_initializer": {"config": {}, "class_name": "Zeros"}, "gamma_initializer": {"config": {}, "class_name": "Ones"}, "name": "block_3_expand_BN", "beta_constraint": null, "momentum": 0.999, "beta_regularizer": null, "gamma_constraint": null, "moving_mean_initializer": {"config": {}, "class_name": "Zeros"}, "moving_variance_initializer": {"config": {}, "class_name": "Ones"}, "scale": true, "epsilon": 0.001, "gamma_regularizer": null, "trainable": true}, "name": "block_3_expand_BN", "inbound_nodes": [[["block_3_expand", 0, 0, {}]]], "class_name": "BatchNormalization"}, {"config": {"max_value": 6.0, "name": "block_3_expand_relu", "trainable": true}, "name": "block_3_expand_relu", "inbound_nodes": [[["block_3_expand_BN", 0, 0, {}]]], "class_name": "ReLU"}, {"config": {"bias_initializer": {"config": {}, "class_name": "Zeros"}, "data_format": "channels_last", "depthwise_constraint": null, "use_bias": false, "bias_constraint": null, "depth_multiplier": 1, "strides": [2, 2], "kernel_size": [3, 3], "activation": "linear", "bias_regularizer": null, "dilation_rate": [1, 1], "depthwise_initializer": {"config": {"mode": "fan_avg", "distribution": "uniform", "seed": null, "scale": 1.0}, "class_name": "VarianceScaling"}, "padding": "same", "activity_regularizer": null, "trainable": true, "name": "block_3_depthwise", "depthwise_regularizer": {"config": {"l1": 0.0, "l2": 3.9999998989515007e-05}, "class_name": "L1L2"}}, "name": "block_3_depthwise", "inbound_nodes": [[["block_3_expand_relu", 0, 0, {}]]], "class_name": "DepthwiseConv2D"}, {"config": {"center": true, "axis": -1, "beta_initializer": {"config": {}, "class_name": "Zeros"}, "gamma_initializer": {"config": {}, "class_name": "Ones"}, "name": "block_3_depthwise_BN", "beta_constraint": null, "momentum": 0.999, "beta_regularizer": null, "gamma_constraint": null, "moving_mean_initializer": {"config": {}, "class_name": "Zeros"}, "moving_variance_initializer": {"config": {}, "class_name": "Ones"}, "scale": true, "epsilon": 0.001, "gamma_regularizer": null, "trainable": true}, "name": "block_3_depthwise_BN", "inbound_nodes": [[["block_3_depthwise", 0, 0, {}]]], "class_name": "BatchNormalization"}, {"config": {"max_value": 6.0, "name": "block_3_depthwise_relu", "trainable": true}, "name": "block_3_depthwise_relu", "inbound_nodes": [[["block_3_depthwise_BN", 0, 0, {}]]], "class_name": "ReLU"}, {"config": {"bias_initializer": {"config": {}, "class_name": "Zeros"}, "data_format": "channels_last", "filters": 32, "kernel_regularizer": {"config": {"l1": 0.0, "l2": 3.9999998989515007e-05}, "class_name": "L1L2"}, "use_bias": false, "kernel_initializer": {"config": {"mode": "fan_in", "distribution": "normal", "seed": null, "scale": 2.0}, "class_name": "VarianceScaling"}, "bias_constraint": null, "bias_regularizer": null, "strides": [1, 1], "kernel_size": [1, 1], "activation": "linear", "kernel_constraint": null, "dilation_rate": [1, 1], "padding": "same", "activity_regularizer": null, "trainable": true, "name": "block_3_project"}, "name": "block_3_project", "inbound_nodes": [[["block_3_depthwise_relu", 0, 0, {}]]], "class_name": "Conv2D"}, {"config": {"center": true, "axis": -1, "beta_initializer": {"config": {}, "class_name": "Zeros"}, "gamma_initializer": {"config": {}, "class_name": "Ones"}, "name": "block_3_project_BN", "beta_constraint": null, "momentum": 0.999, "beta_regularizer": null, "gamma_constraint": null, "moving_mean_initializer": {"config": {}, "class_name": "Zeros"}, "moving_variance_initializer": {"config": {}, "class_name": "Ones"}, "scale": true, "epsilon": 0.001, "gamma_regularizer": null, "trainable": true}, "name": "block_3_project_BN", "inbound_nodes": [[["block_3_project", 0, 0, {}]]], "class_name": "BatchNormalization"}, {"config": {"bias_initializer": {"config": {}, "class_name": "Zeros"}, "data_format": "channels_last", "filters": 192, "kernel_regularizer": {"config": {"l1": 0.0, "l2": 3.9999998989515007e-05}, "class_name": "L1L2"}, "use_bias": false, "kernel_initializer": {"config": {"mode": "fan_in", "distribution": "normal", "seed": null, "scale": 2.0}, "class_name": "VarianceScaling"}, "bias_constraint": null, "bias_regularizer": null, "strides": [1, 1], "kernel_size": [1, 1], "activation": "linear", "kernel_constraint": null, "dilation_rate": [1, 1], "padding": "same", "activity_regularizer": null, "trainable": true, "name": "block_4_expand"}, "name": "block_4_expand", "inbound_nodes": [[["block_3_project_BN", 0, 0, {}]]], "class_name": "Conv2D"}, {"config": {"center": true, "axis": -1, "beta_initializer": {"config": {}, "class_name": "Zeros"}, "gamma_initializer": {"config": {}, "class_name": "Ones"}, "name": "block_4_expand_BN", "beta_constraint": null, "momentum": 0.999, "beta_regularizer": null, "gamma_constraint": null, "moving_mean_initializer": {"config": {}, "class_name": "Zeros"}, "moving_variance_initializer": {"config": {}, "class_name": "Ones"}, "scale": true, "epsilon": 0.001, "gamma_regularizer": null, "trainable": true}, "name": "block_4_expand_BN", "inbound_nodes": [[["block_4_expand", 0, 0, {}]]], "class_name": "BatchNormalization"}, {"config": {"max_value": 6.0, "name": "block_4_expand_relu", "trainable": true}, "name": "block_4_expand_relu", "inbound_nodes": [[["block_4_expand_BN", 0, 0, {}]]], "class_name": "ReLU"}, {"config": {"bias_initializer": {"config": {}, "class_name": "Zeros"}, "data_format": "channels_last", "depthwise_constraint": null, "use_bias": false, "bias_constraint": null, "depth_multiplier": 1, "strides": [1, 1], "kernel_size": [3, 3], "activation": "linear", "bias_regularizer": null, "dilation_rate": [1, 1], "depthwise_initializer": {"config": {"mode": "fan_avg", "distribution": "uniform", "seed": null, "scale": 1.0}, "class_name": "VarianceScaling"}, "padding": "same", "activity_regularizer": null, "trainable": true, "name": "block_4_depthwise", "depthwise_regularizer": {"config": {"l1": 0.0, "l2": 3.9999998989515007e-05}, "class_name": "L1L2"}}, "name": "block_4_depthwise", "inbound_nodes": [[["block_4_expand_relu", 0, 0, {}]]], "class_name": "DepthwiseConv2D"}, {"config": {"center": true, "axis": -1, "beta_initializer": {"config": {}, "class_name": "Zeros"}, "gamma_initializer": {"config": {}, "class_name": "Ones"}, "name": "block_4_depthwise_BN", "beta_constraint": null, "momentum": 0.999, "beta_regularizer": null, "gamma_constraint": null, "moving_mean_initializer": {"config": {}, "class_name": "Zeros"}, "moving_variance_initializer": {"config": {}, "class_name": "Ones"}, "scale": true, "epsilon": 0.001, "gamma_regularizer": null, "trainable": true}, "name": "block_4_depthwise_BN", "inbound_nodes": [[["block_4_depthwise", 0, 0, {}]]], "class_name": "BatchNormalization"}, {"config": {"max_value": 6.0, "name": "block_4_depthwise_relu", "trainable": true}, "name": "block_4_depthwise_relu", "inbound_nodes": [[["block_4_depthwise_BN", 0, 0, {}]]], "class_name": "ReLU"}, {"config": {"bias_initializer": {"config": {}, "class_name": "Zeros"}, "data_format": "channels_last", "filters": 32, "kernel_regularizer": {"config": {"l1": 0.0, "l2": 3.9999998989515007e-05}, "class_name": "L1L2"}, "use_bias": false, "kernel_initializer": {"config": {"mode": "fan_in", "distribution": "normal", "seed": null, "scale": 2.0}, "class_name": "VarianceScaling"}, "bias_constraint": null, "bias_regularizer": null, "strides": [1, 1], "kernel_size": [1, 1], "activation": "linear", "kernel_constraint": null, "dilation_rate": [1, 1], "padding": "same", "activity_regularizer": null, "trainable": true, "name": "block_4_project"}, "name": "block_4_project", "inbound_nodes": [[["block_4_depthwise_relu", 0, 0, {}]]], "class_name": "Conv2D"}, {"config": {"center": true, "axis": -1, "beta_initializer": {"config": {}, "class_name": "Zeros"}, "gamma_initializer": {"config": {}, "class_name": "Ones"}, "name": "block_4_project_BN", "beta_constraint": null, "momentum": 0.999, "beta_regularizer": null, "gamma_constraint": null, "moving_mean_initializer": {"config": {}, "class_name": "Zeros"}, "moving_variance_initializer": {"config": {}, "class_name": "Ones"}, "scale": true, "epsilon": 0.001, "gamma_regularizer": null, "trainable": true}, "name": "block_4_project_BN", "inbound_nodes": [[["block_4_project", 0, 0, {}]]], "class_name": "BatchNormalization"}, {"config": {"name": "block_4_add", "trainable": true}, "name": "block_4_add", "inbound_nodes": [[["block_3_project_BN", 0, 0, {}], ["block_4_project_BN", 0, 0, {}]]], "class_name": "Add"}, {"config": {"bias_initializer": {"config": {}, "class_name": "Zeros"}, "data_format": "channels_last", "filters": 192, "kernel_regularizer": {"config": {"l1": 0.0, "l2": 3.9999998989515007e-05}, "class_name": "L1L2"}, "use_bias": false, "kernel_initializer": {"config": {"mode": "fan_in", "distribution": "normal", "seed": null, "scale": 2.0}, "class_name": "VarianceScaling"}, "bias_constraint": null, "bias_regularizer": null, "strides": [1, 1], "kernel_size": [1, 1], "activation": "linear", "kernel_constraint": null, "dilation_rate": [1, 1], "padding": "same", "activity_regularizer": null, "trainable": true, "name": "block_5_expand"}, "name": "block_5_expand", "inbound_nodes": [[["block_4_add", 0, 0, {}]]], "class_name": "Conv2D"}, {"config": {"center": true, "axis": -1, "beta_initializer": {"config": {}, "class_name": "Zeros"}, "gamma_initializer": {"config": {}, "class_name": "Ones"}, "name": "block_5_expand_BN", "beta_constraint": null, "momentum": 0.999, "beta_regularizer": null, "gamma_constraint": null, "moving_mean_initializer": {"config": {}, "class_name": "Zeros"}, "moving_variance_initializer": {"config": {}, "class_name": "Ones"}, "scale": true, "epsilon": 0.001, "gamma_regularizer": null, "trainable": true}, "name": "block_5_expand_BN", "inbound_nodes": [[["block_5_expand", 0, 0, {}]]], "class_name": "BatchNormalization"}, {"config": {"max_value": 6.0, "name": "block_5_expand_relu", "trainable": true}, "name": "block_5_expand_relu", "inbound_nodes": [[["block_5_expand_BN", 0, 0, {}]]], "class_name": "ReLU"}, {"config": {"bias_initializer": {"config": {}, "class_name": "Zeros"}, "data_format": "channels_last", "depthwise_constraint": null, "use_bias": false, "bias_constraint": null, "depth_multiplier": 1, "strides": [1, 1], "kernel_size": [3, 3], "activation": "linear", "bias_regularizer": null, "dilation_rate": [1, 1], "depthwise_initializer": {"config": {"mode": "fan_avg", "distribution": "uniform", "seed": null, "scale": 1.0}, "class_name": "VarianceScaling"}, "padding": "same", "activity_regularizer": null, "trainable": true, "name": "block_5_depthwise", "depthwise_regularizer": {"config": {"l1": 0.0, "l2": 3.9999998989515007e-05}, "class_name": "L1L2"}}, "name": "block_5_depthwise", "inbound_nodes": [[["block_5_expand_relu", 0, 0, {}]]], "class_name": "DepthwiseConv2D"}, {"config": {"center": true, "axis": -1, "beta_initializer": {"config": {}, "class_name": "Zeros"}, "gamma_initializer": {"config": {}, "class_name": "Ones"}, "name": "block_5_depthwise_BN", "beta_constraint": null, "momentum": 0.999, "beta_regularizer": null, "gamma_constraint": null, "moving_mean_initializer": {"config": {}, "class_name": "Zeros"}, "moving_variance_initializer": {"config": {}, "class_name": "Ones"}, "scale": true, "epsilon": 0.001, "gamma_regularizer": null, "trainable": true}, "name": "block_5_depthwise_BN", "inbound_nodes": [[["block_5_depthwise", 0, 0, {}]]], "class_name": "BatchNormalization"}, {"config": {"max_value": 6.0, "name": "block_5_depthwise_relu", "trainable": true}, "name": "block_5_depthwise_relu", "inbound_nodes": [[["block_5_depthwise_BN", 0, 0, {}]]], "class_name": "ReLU"}, {"config": {"bias_initializer": {"config": {}, "class_name": "Zeros"}, "data_format": "channels_last", "filters": 32, "kernel_regularizer": {"config": {"l1": 0.0, "l2": 3.9999998989515007e-05}, "class_name": "L1L2"}, "use_bias": false, "kernel_initializer": {"config": {"mode": "fan_in", "distribution": "normal", "seed": null, "scale": 2.0}, "class_name": "VarianceScaling"}, "bias_constraint": null, "bias_regularizer": null, "strides": [1, 1], "kernel_size": [1, 1], "activation": "linear", "kernel_constraint": null, "dilation_rate": [1, 1], "padding": "same", "activity_regularizer": null, "trainable": true, "name": "block_5_project"}, "name": "block_5_project", "inbound_nodes": [[["block_5_depthwise_relu", 0, 0, {}]]], "class_name": "Conv2D"}, {"config": {"center": true, "axis": -1, "beta_initializer": {"config": {}, "class_name": "Zeros"}, "gamma_initializer": {"config": {}, "class_name": "Ones"}, "name": "block_5_project_BN", "beta_constraint": null, "momentum": 0.999, "beta_regularizer": null, "gamma_constraint": null, "moving_mean_initializer": {"config": {}, "class_name": "Zeros"}, "moving_variance_initializer": {"config": {}, "class_name": "Ones"}, "scale": true, "epsilon": 0.001, "gamma_regularizer": null, "trainable": true}, "name": "block_5_project_BN", "inbound_nodes": [[["block_5_project", 0, 0, {}]]], "class_name": "BatchNormalization"}, {"config": {"name": "block_5_add", "trainable": true}, "name": "block_5_add", "inbound_nodes": [[["block_4_add", 0, 0, {}], ["block_5_project_BN", 0, 0, {}]]], "class_name": "Add"}, {"config": {"bias_initializer": {"config": {}, "class_name": "Zeros"}, "data_format": "channels_last", "filters": 192, "kernel_regularizer": {"config": {"l1": 0.0, "l2": 3.9999998989515007e-05}, "class_name": "L1L2"}, "use_bias": false, "kernel_initializer": {"config": {"mode": "fan_in", "distribution": "normal", "seed": null, "scale": 2.0}, "class_name": "VarianceScaling"}, "bias_constraint": null, "bias_regularizer": null, "strides": [1, 1], "kernel_size": [1, 1], "activation": "linear", "kernel_constraint": null, "dilation_rate": [1, 1], "padding": "same", "activity_regularizer": null, "trainable": true, "name": "block_6_expand"}, "name": "block_6_expand", "inbound_nodes": [[["block_5_add", 0, 0, {}]]], "class_name": "Conv2D"}, {"config": {"center": true, "axis": -1, "beta_initializer": {"config": {}, "class_name": "Zeros"}, "gamma_initializer": {"config": {}, "class_name": "Ones"}, "name": "block_6_expand_BN", "beta_constraint": null, "momentum": 0.999, "beta_regularizer": null, "gamma_constraint": null, "moving_mean_initializer": {"config": {}, "class_name": "Zeros"}, "moving_variance_initializer": {"config": {}, "class_name": "Ones"}, "scale": true, "epsilon": 0.001, "gamma_regularizer": null, "trainable": true}, "name": "block_6_expand_BN", "inbound_nodes": [[["block_6_expand", 0, 0, {}]]], "class_name": "BatchNormalization"}, {"config": {"max_value": 6.0, "name": "block_6_expand_relu", "trainable": true}, "name": "block_6_expand_relu", "inbound_nodes": [[["block_6_expand_BN", 0, 0, {}]]], "class_name": "ReLU"}, {"config": {"bias_initializer": {"config": {}, "class_name": "Zeros"}, "data_format": "channels_last", "depthwise_constraint": null, "use_bias": false, "bias_constraint": null, "depth_multiplier": 1, "strides": [2, 2], "kernel_size": [3, 3], "activation": "linear", "bias_regularizer": null, "dilation_rate": [1, 1], "depthwise_initializer": {"config": {"mode": "fan_avg", "distribution": "uniform", "seed": null, "scale": 1.0}, "class_name": "VarianceScaling"}, "padding": "same", "activity_regularizer": null, "trainable": true, "name": "block_6_depthwise", "depthwise_regularizer": {"config": {"l1": 0.0, "l2": 3.9999998989515007e-05}, "class_name": "L1L2"}}, "name": "block_6_depthwise", "inbound_nodes": [[["block_6_expand_relu", 0, 0, {}]]], "class_name": "DepthwiseConv2D"}, {"config": {"center": true, "axis": -1, "beta_initializer": {"config": {}, "class_name": "Zeros"}, "gamma_initializer": {"config": {}, "class_name": "Ones"}, "name": "block_6_depthwise_BN", "beta_constraint": null, "momentum": 0.999, "beta_regularizer": null, "gamma_constraint": null, "moving_mean_initializer": {"config": {}, "class_name": "Zeros"}, "moving_variance_initializer": {"config": {}, "class_name": "Ones"}, "scale": true, "epsilon": 0.001, "gamma_regularizer": null, "trainable": true}, "name": "block_6_depthwise_BN", "inbound_nodes": [[["block_6_depthwise", 0, 0, {}]]], "class_name": "BatchNormalization"}, {"config": {"max_value": 6.0, "name": "block_6_depthwise_relu", "trainable": true}, "name": "block_6_depthwise_relu", "inbound_nodes": [[["block_6_depthwise_BN", 0, 0, {}]]], "class_name": "ReLU"}, {"config": {"bias_initializer": {"config": {}, "class_name": "Zeros"}, "data_format": "channels_last", "filters": 64, "kernel_regularizer": {"config": {"l1": 0.0, "l2": 3.9999998989515007e-05}, "class_name": "L1L2"}, "use_bias": false, "kernel_initializer": {"config": {"mode": "fan_in", "distribution": "normal", "seed": null, "scale": 2.0}, "class_name": "VarianceScaling"}, "bias_constraint": null, "bias_regularizer": null, "strides": [1, 1], "kernel_size": [1, 1], "activation": "linear", "kernel_constraint": null, "dilation_rate": [1, 1], "padding": "same", "activity_regularizer": null, "trainable": true, "name": "block_6_project"}, "name": "block_6_project", "inbound_nodes": [[["block_6_depthwise_relu", 0, 0, {}]]], "class_name": "Conv2D"}, {"config": {"center": true, "axis": -1, "beta_initializer": {"config": {}, "class_name": "Zeros"}, "gamma_initializer": {"config": {}, "class_name": "Ones"}, "name": "block_6_project_BN", "beta_constraint": null, "momentum": 0.999, "beta_regularizer": null, "gamma_constraint": null, "moving_mean_initializer": {"config": {}, "class_name": "Zeros"}, "moving_variance_initializer": {"config": {}, "class_name": "Ones"}, "scale": true, "epsilon": 0.001, "gamma_regularizer": null, "trainable": true}, "name": "block_6_project_BN", "inbound_nodes": [[["block_6_project", 0, 0, {}]]], "class_name": "BatchNormalization"}, {"config": {"bias_initializer": {"config": {}, "class_name": "Zeros"}, "data_format": "channels_last", "filters": 384, "kernel_regularizer": {"config": {"l1": 0.0, "l2": 3.9999998989515007e-05}, "class_name": "L1L2"}, "use_bias": false, "kernel_initializer": {"config": {"mode": "fan_in", "distribution": "normal", "seed": null, "scale": 2.0}, "class_name": "VarianceScaling"}, "bias_constraint": null, "bias_regularizer": null, "strides": [1, 1], "kernel_size": [1, 1], "activation": "linear", "kernel_constraint": null, "dilation_rate": [1, 1], "padding": "same", "activity_regularizer": null, "trainable": true, "name": "block_7_expand"}, "name": "block_7_expand", "inbound_nodes": [[["block_6_project_BN", 0, 0, {}]]], "class_name": "Conv2D"}, {"config": {"center": true, "axis": -1, "beta_initializer": {"config": {}, "class_name": "Zeros"}, "gamma_initializer": {"config": {}, "class_name": "Ones"}, "name": "block_7_expand_BN", "beta_constraint": null, "momentum": 0.999, "beta_regularizer": null, "gamma_constraint": null, "moving_mean_initializer": {"config": {}, "class_name": "Zeros"}, "moving_variance_initializer": {"config": {}, "class_name": "Ones"}, "scale": true, "epsilon": 0.001, "gamma_regularizer": null, "trainable": true}, "name": "block_7_expand_BN", "inbound_nodes": [[["block_7_expand", 0, 0, {}]]], "class_name": "BatchNormalization"}, {"config": {"max_value": 6.0, "name": "block_7_expand_relu", "trainable": true}, "name": "block_7_expand_relu", "inbound_nodes": [[["block_7_expand_BN", 0, 0, {}]]], "class_name": "ReLU"}, {"config": {"bias_initializer": {"config": {}, "class_name": "Zeros"}, "data_format": "channels_last", "depthwise_constraint": null, "use_bias": false, "bias_constraint": null, "depth_multiplier": 1, "strides": [1, 1], "kernel_size": [3, 3], "activation": "linear", "bias_regularizer": null, "dilation_rate": [1, 1], "depthwise_initializer": {"config": {"mode": "fan_avg", "distribution": "uniform", "seed": null, "scale": 1.0}, "class_name": "VarianceScaling"}, "padding": "same", "activity_regularizer": null, "trainable": true, "name": "block_7_depthwise", "depthwise_regularizer": {"config": {"l1": 0.0, "l2": 3.9999998989515007e-05}, "class_name": "L1L2"}}, "name": "block_7_depthwise", "inbound_nodes": [[["block_7_expand_relu", 0, 0, {}]]], "class_name": "DepthwiseConv2D"}, {"config": {"center": true, "axis": -1, "beta_initializer": {"config": {}, "class_name": "Zeros"}, "gamma_initializer": {"config": {}, "class_name": "Ones"}, "name": "block_7_depthwise_BN", "beta_constraint": null, "momentum": 0.999, "beta_regularizer": null, "gamma_constraint": null, "moving_mean_initializer": {"config": {}, "class_name": "Zeros"}, "moving_variance_initializer": {"config": {}, "class_name": "Ones"}, "scale": true, "epsilon": 0.001, "gamma_regularizer": null, "trainable": true}, "name": "block_7_depthwise_BN", "inbound_nodes": [[["block_7_depthwise", 0, 0, {}]]], "class_name": "BatchNormalization"}, {"config": {"max_value": 6.0, "name": "block_7_depthwise_relu", "trainable": true}, "name": "block_7_depthwise_relu", "inbound_nodes": [[["block_7_depthwise_BN", 0, 0, {}]]], "class_name": "ReLU"}, {"config": {"bias_initializer": {"config": {}, "class_name": "Zeros"}, "data_format": "channels_last", "filters": 64, "kernel_regularizer": {"config": {"l1": 0.0, "l2": 3.9999998989515007e-05}, "class_name": "L1L2"}, "use_bias": false, "kernel_initializer": {"config": {"mode": "fan_in", "distribution": "normal", "seed": null, "scale": 2.0}, "class_name": "VarianceScaling"}, "bias_constraint": null, "bias_regularizer": null, "strides": [1, 1], "kernel_size": [1, 1], "activation": "linear", "kernel_constraint": null, "dilation_rate": [1, 1], "padding": "same", "activity_regularizer": null, "trainable": true, "name": "block_7_project"}, "name": "block_7_project", "inbound_nodes": [[["block_7_depthwise_relu", 0, 0, {}]]], "class_name": "Conv2D"}, {"config": {"center": true, "axis": -1, "beta_initializer": {"config": {}, "class_name": "Zeros"}, "gamma_initializer": {"config": {}, "class_name": "Ones"}, "name": "block_7_project_BN", "beta_constraint": null, "momentum": 0.999, "beta_regularizer": null, "gamma_constraint": null, "moving_mean_initializer": {"config": {}, "class_name": "Zeros"}, "moving_variance_initializer": {"config": {}, "class_name": "Ones"}, "scale": true, "epsilon": 0.001, "gamma_regularizer": null, "trainable": true}, "name": "block_7_project_BN", "inbound_nodes": [[["block_7_project", 0, 0, {}]]], "class_name": "BatchNormalization"}, {"config": {"name": "block_7_add", "trainable": true}, "name": "block_7_add", "inbound_nodes": [[["block_6_project_BN", 0, 0, {}], ["block_7_project_BN", 0, 0, {}]]], "class_name": "Add"}, {"config": {"bias_initializer": {"config": {}, "class_name": "Zeros"}, "data_format": "channels_last", "filters": 384, "kernel_regularizer": {"config": {"l1": 0.0, "l2": 3.9999998989515007e-05}, "class_name": "L1L2"}, "use_bias": false, "kernel_initializer": {"config": {"mode": "fan_in", "distribution": "normal", "seed": null, "scale": 2.0}, "class_name": "VarianceScaling"}, "bias_constraint": null, "bias_regularizer": null, "strides": [1, 1], "kernel_size": [1, 1], "activation": "linear", "kernel_constraint": null, "dilation_rate": [1, 1], "padding": "same", "activity_regularizer": null, "trainable": true, "name": "block_8_expand"}, "name": "block_8_expand", "inbound_nodes": [[["block_7_add", 0, 0, {}]]], "class_name": "Conv2D"}, {"config": {"center": true, "axis": -1, "beta_initializer": {"config": {}, "class_name": "Zeros"}, "gamma_initializer": {"config": {}, "class_name": "Ones"}, "name": "block_8_expand_BN", "beta_constraint": null, "momentum": 0.999, "beta_regularizer": null, "gamma_constraint": null, "moving_mean_initializer": {"config": {}, "class_name": "Zeros"}, "moving_variance_initializer": {"config": {}, "class_name": "Ones"}, "scale": true, "epsilon": 0.001, "gamma_regularizer": null, "trainable": true}, "name": "block_8_expand_BN", "inbound_nodes": [[["block_8_expand", 0, 0, {}]]], "class_name": "BatchNormalization"}, {"config": {"max_value": 6.0, "name": "block_8_expand_relu", "trainable": true}, "name": "block_8_expand_relu", "inbound_nodes": [[["block_8_expand_BN", 0, 0, {}]]], "class_name": "ReLU"}, {"config": {"bias_initializer": {"config": {}, "class_name": "Zeros"}, "data_format": "channels_last", "depthwise_constraint": null, "use_bias": false, "bias_constraint": null, "depth_multiplier": 1, "strides": [1, 1], "kernel_size": [3, 3], "activation": "linear", "bias_regularizer": null, "dilation_rate": [1, 1], "depthwise_initializer": {"config": {"mode": "fan_avg", "distribution": "uniform", "seed": null, "scale": 1.0}, "class_name": "VarianceScaling"}, "padding": "same", "activity_regularizer": null, "trainable": true, "name": "block_8_depthwise", "depthwise_regularizer": {"config": {"l1": 0.0, "l2": 3.9999998989515007e-05}, "class_name": "L1L2"}}, "name": "block_8_depthwise", "inbound_nodes": [[["block_8_expand_relu", 0, 0, {}]]], "class_name": "DepthwiseConv2D"}, {"config": {"center": true, "axis": -1, "beta_initializer": {"config": {}, "class_name": "Zeros"}, "gamma_initializer": {"config": {}, "class_name": "Ones"}, "name": "block_8_depthwise_BN", "beta_constraint": null, "momentum": 0.999, "beta_regularizer": null, "gamma_constraint": null, "moving_mean_initializer": {"config": {}, "class_name": "Zeros"}, "moving_variance_initializer": {"config": {}, "class_name": "Ones"}, "scale": true, "epsilon": 0.001, "gamma_regularizer": null, "trainable": true}, "name": "block_8_depthwise_BN", "inbound_nodes": [[["block_8_depthwise", 0, 0, {}]]], "class_name": "BatchNormalization"}, {"config": {"max_value": 6.0, "name": "block_8_depthwise_relu", "trainable": true}, "name": "block_8_depthwise_relu", "inbound_nodes": [[["block_8_depthwise_BN", 0, 0, {}]]], "class_name": "ReLU"}, {"config": {"bias_initializer": {"config": {}, "class_name": "Zeros"}, "data_format": "channels_last", "filters": 64, "kernel_regularizer": {"config": {"l1": 0.0, "l2": 3.9999998989515007e-05}, "class_name": "L1L2"}, "use_bias": false, "kernel_initializer": {"config": {"mode": "fan_in", "distribution": "normal", "seed": null, "scale": 2.0}, "class_name": "VarianceScaling"}, "bias_constraint": null, "bias_regularizer": null, "strides": [1, 1], "kernel_size": [1, 1], "activation": "linear", "kernel_constraint": null, "dilation_rate": [1, 1], "padding": "same", "activity_regularizer": null, "trainable": true, "name": "block_8_project"}, "name": "block_8_project", "inbound_nodes": [[["block_8_depthwise_relu", 0, 0, {}]]], "class_name": "Conv2D"}, {"config": {"center": true, "axis": -1, "beta_initializer": {"config": {}, "class_name": "Zeros"}, "gamma_initializer": {"config": {}, "class_name": "Ones"}, "name": "block_8_project_BN", "beta_constraint": null, "momentum": 0.999, "beta_regularizer": null, "gamma_constraint": null, "moving_mean_initializer": {"config": {}, "class_name": "Zeros"}, "moving_variance_initializer": {"config": {}, "class_name": "Ones"}, "scale": true, "epsilon": 0.001, "gamma_regularizer": null, "trainable": true}, "name": "block_8_project_BN", "inbound_nodes": [[["block_8_project", 0, 0, {}]]], "class_name": "BatchNormalization"}, {"config": {"name": "block_8_add", "trainable": true}, "name": "block_8_add", "inbound_nodes": [[["block_7_add", 0, 0, {}], ["block_8_project_BN", 0, 0, {}]]], "class_name": "Add"}, {"config": {"bias_initializer": {"config": {}, "class_name": "Zeros"}, "data_format": "channels_last", "filters": 384, "kernel_regularizer": {"config": {"l1": 0.0, "l2": 3.9999998989515007e-05}, "class_name": "L1L2"}, "use_bias": false, "kernel_initializer": {"config": {"mode": "fan_in", "distribution": "normal", "seed": null, "scale": 2.0}, "class_name": "VarianceScaling"}, "bias_constraint": null, "bias_regularizer": null, "strides": [1, 1], "kernel_size": [1, 1], "activation": "linear", "kernel_constraint": null, "dilation_rate": [1, 1], "padding": "same", "activity_regularizer": null, "trainable": true, "name": "block_9_expand"}, "name": "block_9_expand", "inbound_nodes": [[["block_8_add", 0, 0, {}]]], "class_name": "Conv2D"}, {"config": {"center": true, "axis": -1, "beta_initializer": {"config": {}, "class_name": "Zeros"}, "gamma_initializer": {"config": {}, "class_name": "Ones"}, "name": "block_9_expand_BN", "beta_constraint": null, "momentum": 0.999, "beta_regularizer": null, "gamma_constraint": null, "moving_mean_initializer": {"config": {}, "class_name": "Zeros"}, "moving_variance_initializer": {"config": {}, "class_name": "Ones"}, "scale": true, "epsilon": 0.001, "gamma_regularizer": null, "trainable": true}, "name": "block_9_expand_BN", "inbound_nodes": [[["block_9_expand", 0, 0, {}]]], "class_name": "BatchNormalization"}, {"config": {"max_value": 6.0, "name": "block_9_expand_relu", "trainable": true}, "name": "block_9_expand_relu", "inbound_nodes": [[["block_9_expand_BN", 0, 0, {}]]], "class_name": "ReLU"}, {"config": {"bias_initializer": {"config": {}, "class_name": "Zeros"}, "data_format": "channels_last", "depthwise_constraint": null, "use_bias": false, "bias_constraint": null, "depth_multiplier": 1, "strides": [1, 1], "kernel_size": [3, 3], "activation": "linear", "bias_regularizer": null, "dilation_rate": [1, 1], "depthwise_initializer": {"config": {"mode": "fan_avg", "distribution": "uniform", "seed": null, "scale": 1.0}, "class_name": "VarianceScaling"}, "padding": "same", "activity_regularizer": null, "trainable": true, "name": "block_9_depthwise", "depthwise_regularizer": {"config": {"l1": 0.0, "l2": 3.9999998989515007e-05}, "class_name": "L1L2"}}, "name": "block_9_depthwise", "inbound_nodes": [[["block_9_expand_relu", 0, 0, {}]]], "class_name": "DepthwiseConv2D"}, {"config": {"center": true, "axis": -1, "beta_initializer": {"config": {}, "class_name": "Zeros"}, "gamma_initializer": {"config": {}, "class_name": "Ones"}, "name": "block_9_depthwise_BN", "beta_constraint": null, "momentum": 0.999, "beta_regularizer": null, "gamma_constraint": null, "moving_mean_initializer": {"config": {}, "class_name": "Zeros"}, "moving_variance_initializer": {"config": {}, "class_name": "Ones"}, "scale": true, "epsilon": 0.001, "gamma_regularizer": null, "trainable": true}, "name": "block_9_depthwise_BN", "inbound_nodes": [[["block_9_depthwise", 0, 0, {}]]], "class_name": "BatchNormalization"}, {"config": {"max_value": 6.0, "name": "block_9_depthwise_relu", "trainable": true}, "name": "block_9_depthwise_relu", "inbound_nodes": [[["block_9_depthwise_BN", 0, 0, {}]]], "class_name": "ReLU"}, {"config": {"bias_initializer": {"config": {}, "class_name": "Zeros"}, "data_format": "channels_last", "filters": 64, "kernel_regularizer": {"config": {"l1": 0.0, "l2": 3.9999998989515007e-05}, "class_name": "L1L2"}, "use_bias": false, "kernel_initializer": {"config": {"mode": "fan_in", "distribution": "normal", "seed": null, "scale": 2.0}, "class_name": "VarianceScaling"}, "bias_constraint": null, "bias_regularizer": null, "strides": [1, 1], "kernel_size": [1, 1], "activation": "linear", "kernel_constraint": null, "dilation_rate": [1, 1], "padding": "same", "activity_regularizer": null, "trainable": true, "name": "block_9_project"}, "name": "block_9_project", "inbound_nodes": [[["block_9_depthwise_relu", 0, 0, {}]]], "class_name": "Conv2D"}, {"config": {"center": true, "axis": -1, "beta_initializer": {"config": {}, "class_name": "Zeros"}, "gamma_initializer": {"config": {}, "class_name": "Ones"}, "name": "block_9_project_BN", "beta_constraint": null, "momentum": 0.999, "beta_regularizer": null, "gamma_constraint": null, "moving_mean_initializer": {"config": {}, "class_name": "Zeros"}, "moving_variance_initializer": {"config": {}, "class_name": "Ones"}, "scale": true, "epsilon": 0.001, "gamma_regularizer": null, "trainable": true}, "name": "block_9_project_BN", "inbound_nodes": [[["block_9_project", 0, 0, {}]]], "class_name": "BatchNormalization"}, {"config": {"name": "block_9_add", "trainable": true}, "name": "block_9_add", "inbound_nodes": [[["block_8_add", 0, 0, {}], ["block_9_project_BN", 0, 0, {}]]], "class_name": "Add"}, {"config": {"bias_initializer": {"config": {}, "class_name": "Zeros"}, "data_format": "channels_last", "filters": 384, "kernel_regularizer": {"config": {"l1": 0.0, "l2": 3.9999998989515007e-05}, "class_name": "L1L2"}, "use_bias": false, "kernel_initializer": {"config": {"mode": "fan_in", "distribution": "normal", "seed": null, "scale": 2.0}, "class_name": "VarianceScaling"}, "bias_constraint": null, "bias_regularizer": null, "strides": [1, 1], "kernel_size": [1, 1], "activation": "linear", "kernel_constraint": null, "dilation_rate": [1, 1], "padding": "same", "activity_regularizer": null, "trainable": true, "name": "block_10_expand"}, "name": "block_10_expand", "inbound_nodes": [[["block_9_add", 0, 0, {}]]], "class_name": "Conv2D"}, {"config": {"center": true, "axis": -1, "beta_initializer": {"config": {}, "class_name": "Zeros"}, "gamma_initializer": {"config": {}, "class_name": "Ones"}, "name": "block_10_expand_BN", "beta_constraint": null, "momentum": 0.999, "beta_regularizer": null, "gamma_constraint": null, "moving_mean_initializer": {"config": {}, "class_name": "Zeros"}, "moving_variance_initializer": {"config": {}, "class_name": "Ones"}, "scale": true, "epsilon": 0.001, "gamma_regularizer": null, "trainable": true}, "name": "block_10_expand_BN", "inbound_nodes": [[["block_10_expand", 0, 0, {}]]], "class_name": "BatchNormalization"}, {"config": {"max_value": 6.0, "name": "block_10_expand_relu", "trainable": true}, "name": "block_10_expand_relu", "inbound_nodes": [[["block_10_expand_BN", 0, 0, {}]]], "class_name": "ReLU"}, {"config": {"bias_initializer": {"config": {}, "class_name": "Zeros"}, "data_format": "channels_last", "depthwise_constraint": null, "use_bias": false, "bias_constraint": null, "depth_multiplier": 1, "strides": [1, 1], "kernel_size": [3, 3], "activation": "linear", "bias_regularizer": null, "dilation_rate": [1, 1], "depthwise_initializer": {"config": {"mode": "fan_avg", "distribution": "uniform", "seed": null, "scale": 1.0}, "class_name": "VarianceScaling"}, "padding": "same", "activity_regularizer": null, "trainable": true, "name": "block_10_depthwise", "depthwise_regularizer": {"config": {"l1": 0.0, "l2": 3.9999998989515007e-05}, "class_name": "L1L2"}}, "name": "block_10_depthwise", "inbound_nodes": [[["block_10_expand_relu", 0, 0, {}]]], "class_name": "DepthwiseConv2D"}, {"config": {"center": true, "axis": -1, "beta_initializer": {"config": {}, "class_name": "Zeros"}, "gamma_initializer": {"config": {}, "class_name": "Ones"}, "name": "block_10_depthwise_BN", "beta_constraint": null, "momentum": 0.999, "beta_regularizer": null, "gamma_constraint": null, "moving_mean_initializer": {"config": {}, "class_name": "Zeros"}, "moving_variance_initializer": {"config": {}, "class_name": "Ones"}, "scale": true, "epsilon": 0.001, "gamma_regularizer": null, "trainable": true}, "name": "block_10_depthwise_BN", "inbound_nodes": [[["block_10_depthwise", 0, 0, {}]]], "class_name": "BatchNormalization"}, {"config": {"max_value": 6.0, "name": "block_10_depthwise_relu", "trainable": true}, "name": "block_10_depthwise_relu", "inbound_nodes": [[["block_10_depthwise_BN", 0, 0, {}]]], "class_name": "ReLU"}, {"config": {"bias_initializer": {"config": {}, "class_name": "Zeros"}, "data_format": "channels_last", "filters": 96, "kernel_regularizer": {"config": {"l1": 0.0, "l2": 3.9999998989515007e-05}, "class_name": "L1L2"}, "use_bias": false, "kernel_initializer": {"config": {"mode": "fan_in", "distribution": "normal", "seed": null, "scale": 2.0}, "class_name": "VarianceScaling"}, "bias_constraint": null, "bias_regularizer": null, "strides": [1, 1], "kernel_size": [1, 1], "activation": "linear", "kernel_constraint": null, "dilation_rate": [1, 1], "padding": "same", "activity_regularizer": null, "trainable": true, "name": "block_10_project"}, "name": "block_10_project", "inbound_nodes": [[["block_10_depthwise_relu", 0, 0, {}]]], "class_name": "Conv2D"}, {"config": {"center": true, "axis": -1, "beta_initializer": {"config": {}, "class_name": "Zeros"}, "gamma_initializer": {"config": {}, "class_name": "Ones"}, "name": "block_10_project_BN", "beta_constraint": null, "momentum": 0.999, "beta_regularizer": null, "gamma_constraint": null, "moving_mean_initializer": {"config": {}, "class_name": "Zeros"}, "moving_variance_initializer": {"config": {}, "class_name": "Ones"}, "scale": true, "epsilon": 0.001, "gamma_regularizer": null, "trainable": true}, "name": "block_10_project_BN", "inbound_nodes": [[["block_10_project", 0, 0, {}]]], "class_name": "BatchNormalization"}, {"config": {"bias_initializer": {"config": {}, "class_name": "Zeros"}, "data_format": "channels_last", "filters": 576, "kernel_regularizer": {"config": {"l1": 0.0, "l2": 3.9999998989515007e-05}, "class_name": "L1L2"}, "use_bias": false, "kernel_initializer": {"config": {"mode": "fan_in", "distribution": "normal", "seed": null, "scale": 2.0}, "class_name": "VarianceScaling"}, "bias_constraint": null, "bias_regularizer": null, "strides": [1, 1], "kernel_size": [1, 1], "activation": "linear", "kernel_constraint": null, "dilation_rate": [1, 1], "padding": "same", "activity_regularizer": null, "trainable": true, "name": "block_11_expand"}, "name": "block_11_expand", "inbound_nodes": [[["block_10_project_BN", 0, 0, {}]]], "class_name": "Conv2D"}, {"config": {"center": true, "axis": -1, "beta_initializer": {"config": {}, "class_name": "Zeros"}, "gamma_initializer": {"config": {}, "class_name": "Ones"}, "name": "block_11_expand_BN", "beta_constraint": null, "momentum": 0.999, "beta_regularizer": null, "gamma_constraint": null, "moving_mean_initializer": {"config": {}, "class_name": "Zeros"}, "moving_variance_initializer": {"config": {}, "class_name": "Ones"}, "scale": true, "epsilon": 0.001, "gamma_regularizer": null, "trainable": true}, "name": "block_11_expand_BN", "inbound_nodes": [[["block_11_expand", 0, 0, {}]]], "class_name": "BatchNormalization"}, {"config": {"max_value": 6.0, "name": "block_11_expand_relu", "trainable": true}, "name": "block_11_expand_relu", "inbound_nodes": [[["block_11_expand_BN", 0, 0, {}]]], "class_name": "ReLU"}, {"config": {"bias_initializer": {"config": {}, "class_name": "Zeros"}, "data_format": "channels_last", "depthwise_constraint": null, "use_bias": false, "bias_constraint": null, "depth_multiplier": 1, "strides": [1, 1], "kernel_size": [3, 3], "activation": "linear", "bias_regularizer": null, "dilation_rate": [1, 1], "depthwise_initializer": {"config": {"mode": "fan_avg", "distribution": "uniform", "seed": null, "scale": 1.0}, "class_name": "VarianceScaling"}, "padding": "same", "activity_regularizer": null, "trainable": true, "name": "block_11_depthwise", "depthwise_regularizer": {"config": {"l1": 0.0, "l2": 3.9999998989515007e-05}, "class_name": "L1L2"}}, "name": "block_11_depthwise", "inbound_nodes": [[["block_11_expand_relu", 0, 0, {}]]], "class_name": "DepthwiseConv2D"}, {"config": {"center": true, "axis": -1, "beta_initializer": {"config": {}, "class_name": "Zeros"}, "gamma_initializer": {"config": {}, "class_name": "Ones"}, "name": "block_11_depthwise_BN", "beta_constraint": null, "momentum": 0.999, "beta_regularizer": null, "gamma_constraint": null, "moving_mean_initializer": {"config": {}, "class_name": "Zeros"}, "moving_variance_initializer": {"config": {}, "class_name": "Ones"}, "scale": true, "epsilon": 0.001, "gamma_regularizer": null, "trainable": true}, "name": "block_11_depthwise_BN", "inbound_nodes": [[["block_11_depthwise", 0, 0, {}]]], "class_name": "BatchNormalization"}, {"config": {"max_value": 6.0, "name": "block_11_depthwise_relu", "trainable": true}, "name": "block_11_depthwise_relu", "inbound_nodes": [[["block_11_depthwise_BN", 0, 0, {}]]], "class_name": "ReLU"}, {"config": {"bias_initializer": {"config": {}, "class_name": "Zeros"}, "data_format": "channels_last", "filters": 96, "kernel_regularizer": {"config": {"l1": 0.0, "l2": 3.9999998989515007e-05}, "class_name": "L1L2"}, "use_bias": false, "kernel_initializer": {"config": {"mode": "fan_in", "distribution": "normal", "seed": null, "scale": 2.0}, "class_name": "VarianceScaling"}, "bias_constraint": null, "bias_regularizer": null, "strides": [1, 1], "kernel_size": [1, 1], "activation": "linear", "kernel_constraint": null, "dilation_rate": [1, 1], "padding": "same", "activity_regularizer": null, "trainable": true, "name": "block_11_project"}, "name": "block_11_project", "inbound_nodes": [[["block_11_depthwise_relu", 0, 0, {}]]], "class_name": "Conv2D"}, {"config": {"center": true, "axis": -1, "beta_initializer": {"config": {}, "class_name": "Zeros"}, "gamma_initializer": {"config": {}, "class_name": "Ones"}, "name": "block_11_project_BN", "beta_constraint": null, "momentum": 0.999, "beta_regularizer": null, "gamma_constraint": null, "moving_mean_initializer": {"config": {}, "class_name": "Zeros"}, "moving_variance_initializer": {"config": {}, "class_name": "Ones"}, "scale": true, "epsilon": 0.001, "gamma_regularizer": null, "trainable": true}, "name": "block_11_project_BN", "inbound_nodes": [[["block_11_project", 0, 0, {}]]], "class_name": "BatchNormalization"}, {"config": {"name": "block_11_add", "trainable": true}, "name": "block_11_add", "inbound_nodes": [[["block_10_project_BN", 0, 0, {}], ["block_11_project_BN", 0, 0, {}]]], "class_name": "Add"}, {"config": {"bias_initializer": {"config": {}, "class_name": "Zeros"}, "data_format": "channels_last", "filters": 576, "kernel_regularizer": {"config": {"l1": 0.0, "l2": 3.9999998989515007e-05}, "class_name": "L1L2"}, "use_bias": false, "kernel_initializer": {"config": {"mode": "fan_in", "distribution": "normal", "seed": null, "scale": 2.0}, "class_name": "VarianceScaling"}, "bias_constraint": null, "bias_regularizer": null, "strides": [1, 1], "kernel_size": [1, 1], "activation": "linear", "kernel_constraint": null, "dilation_rate": [1, 1], "padding": "same", "activity_regularizer": null, "trainable": true, "name": "block_12_expand"}, "name": "block_12_expand", "inbound_nodes": [[["block_11_add", 0, 0, {}]]], "class_name": "Conv2D"}, {"config": {"center": true, "axis": -1, "beta_initializer": {"config": {}, "class_name": "Zeros"}, "gamma_initializer": {"config": {}, "class_name": "Ones"}, "name": "block_12_expand_BN", "beta_constraint": null, "momentum": 0.999, "beta_regularizer": null, "gamma_constraint": null, "moving_mean_initializer": {"config": {}, "class_name": "Zeros"}, "moving_variance_initializer": {"config": {}, "class_name": "Ones"}, "scale": true, "epsilon": 0.001, "gamma_regularizer": null, "trainable": true}, "name": "block_12_expand_BN", "inbound_nodes": [[["block_12_expand", 0, 0, {}]]], "class_name": "BatchNormalization"}, {"config": {"max_value": 6.0, "name": "block_12_expand_relu", "trainable": true}, "name": "block_12_expand_relu", "inbound_nodes": [[["block_12_expand_BN", 0, 0, {}]]], "class_name": "ReLU"}, {"config": {"bias_initializer": {"config": {}, "class_name": "Zeros"}, "data_format": "channels_last", "depthwise_constraint": null, "use_bias": false, "bias_constraint": null, "depth_multiplier": 1, "strides": [1, 1], "kernel_size": [3, 3], "activation": "linear", "bias_regularizer": null, "dilation_rate": [1, 1], "depthwise_initializer": {"config": {"mode": "fan_avg", "distribution": "uniform", "seed": null, "scale": 1.0}, "class_name": "VarianceScaling"}, "padding": "same", "activity_regularizer": null, "trainable": true, "name": "block_12_depthwise", "depthwise_regularizer": {"config": {"l1": 0.0, "l2": 3.9999998989515007e-05}, "class_name": "L1L2"}}, "name": "block_12_depthwise", "inbound_nodes": [[["block_12_expand_relu", 0, 0, {}]]], "class_name": "DepthwiseConv2D"}, {"config": {"center": true, "axis": -1, "beta_initializer": {"config": {}, "class_name": "Zeros"}, "gamma_initializer": {"config": {}, "class_name": "Ones"}, "name": "block_12_depthwise_BN", "beta_constraint": null, "momentum": 0.999, "beta_regularizer": null, "gamma_constraint": null, "moving_mean_initializer": {"config": {}, "class_name": "Zeros"}, "moving_variance_initializer": {"config": {}, "class_name": "Ones"}, "scale": true, "epsilon": 0.001, "gamma_regularizer": null, "trainable": true}, "name": "block_12_depthwise_BN", "inbound_nodes": [[["block_12_depthwise", 0, 0, {}]]], "class_name": "BatchNormalization"}, {"config": {"max_value": 6.0, "name": "block_12_depthwise_relu", "trainable": true}, "name": "block_12_depthwise_relu", "inbound_nodes": [[["block_12_depthwise_BN", 0, 0, {}]]], "class_name": "ReLU"}, {"config": {"bias_initializer": {"config": {}, "class_name": "Zeros"}, "data_format": "channels_last", "filters": 96, "kernel_regularizer": {"config": {"l1": 0.0, "l2": 3.9999998989515007e-05}, "class_name": "L1L2"}, "use_bias": false, "kernel_initializer": {"config": {"mode": "fan_in", "distribution": "normal", "seed": null, "scale": 2.0}, "class_name": "VarianceScaling"}, "bias_constraint": null, "bias_regularizer": null, "strides": [1, 1], "kernel_size": [1, 1], "activation": "linear", "kernel_constraint": null, "dilation_rate": [1, 1], "padding": "same", "activity_regularizer": null, "trainable": true, "name": "block_12_project"}, "name": "block_12_project", "inbound_nodes": [[["block_12_depthwise_relu", 0, 0, {}]]], "class_name": "Conv2D"}, {"config": {"center": true, "axis": -1, "beta_initializer": {"config": {}, "class_name": "Zeros"}, "gamma_initializer": {"config": {}, "class_name": "Ones"}, "name": "block_12_project_BN", "beta_constraint": null, "momentum": 0.999, "beta_regularizer": null, "gamma_constraint": null, "moving_mean_initializer": {"config": {}, "class_name": "Zeros"}, "moving_variance_initializer": {"config": {}, "class_name": "Ones"}, "scale": true, "epsilon": 0.001, "gamma_regularizer": null, "trainable": true}, "name": "block_12_project_BN", "inbound_nodes": [[["block_12_project", 0, 0, {}]]], "class_name": "BatchNormalization"}, {"config": {"name": "block_12_add", "trainable": true}, "name": "block_12_add", "inbound_nodes": [[["block_11_add", 0, 0, {}], ["block_12_project_BN", 0, 0, {}]]], "class_name": "Add"}, {"config": {"bias_initializer": {"config": {}, "class_name": "Zeros"}, "data_format": "channels_last", "filters": 576, "kernel_regularizer": {"config": {"l1": 0.0, "l2": 3.9999998989515007e-05}, "class_name": "L1L2"}, "use_bias": false, "kernel_initializer": {"config": {"mode": "fan_in", "distribution": "normal", "seed": null, "scale": 2.0}, "class_name": "VarianceScaling"}, "bias_constraint": null, "bias_regularizer": null, "strides": [1, 1], "kernel_size": [1, 1], "activation": "linear", "kernel_constraint": null, "dilation_rate": [1, 1], "padding": "same", "activity_regularizer": null, "trainable": true, "name": "block_13_expand"}, "name": "block_13_expand", "inbound_nodes": [[["block_12_add", 0, 0, {}]]], "class_name": "Conv2D"}, {"config": {"center": true, "axis": -1, "beta_initializer": {"config": {}, "class_name": "Zeros"}, "gamma_initializer": {"config": {}, "class_name": "Ones"}, "name": "block_13_expand_BN", "beta_constraint": null, "momentum": 0.999, "beta_regularizer": null, "gamma_constraint": null, "moving_mean_initializer": {"config": {}, "class_name": "Zeros"}, "moving_variance_initializer": {"config": {}, "class_name": "Ones"}, "scale": true, "epsilon": 0.001, "gamma_regularizer": null, "trainable": true}, "name": "block_13_expand_BN", "inbound_nodes": [[["block_13_expand", 0, 0, {}]]], "class_name": "BatchNormalization"}, {"config": {"max_value": 6.0, "name": "block_13_expand_relu", "trainable": true}, "name": "block_13_expand_relu", "inbound_nodes": [[["block_13_expand_BN", 0, 0, {}]]], "class_name": "ReLU"}, {"config": {"bias_initializer": {"config": {}, "class_name": "Zeros"}, "data_format": "channels_last", "depthwise_constraint": null, "use_bias": false, "bias_constraint": null, "depth_multiplier": 1, "strides": [2, 2], "kernel_size": [3, 3], "activation": "linear", "bias_regularizer": null, "dilation_rate": [1, 1], "depthwise_initializer": {"config": {"mode": "fan_avg", "distribution": "uniform", "seed": null, "scale": 1.0}, "class_name": "VarianceScaling"}, "padding": "same", "activity_regularizer": null, "trainable": true, "name": "block_13_depthwise", "depthwise_regularizer": {"config": {"l1": 0.0, "l2": 3.9999998989515007e-05}, "class_name": "L1L2"}}, "name": "block_13_depthwise", "inbound_nodes": [[["block_13_expand_relu", 0, 0, {}]]], "class_name": "DepthwiseConv2D"}, {"config": {"center": true, "axis": -1, "beta_initializer": {"config": {}, "class_name": "Zeros"}, "gamma_initializer": {"config": {}, "class_name": "Ones"}, "name": "block_13_depthwise_BN", "beta_constraint": null, "momentum": 0.999, "beta_regularizer": null, "gamma_constraint": null, "moving_mean_initializer": {"config": {}, "class_name": "Zeros"}, "moving_variance_initializer": {"config": {}, "class_name": "Ones"}, "scale": true, "epsilon": 0.001, "gamma_regularizer": null, "trainable": true}, "name": "block_13_depthwise_BN", "inbound_nodes": [[["block_13_depthwise", 0, 0, {}]]], "class_name": "BatchNormalization"}, {"config": {"max_value": 6.0, "name": "block_13_depthwise_relu", "trainable": true}, "name": "block_13_depthwise_relu", "inbound_nodes": [[["block_13_depthwise_BN", 0, 0, {}]]], "class_name": "ReLU"}, {"config": {"bias_initializer": {"config": {}, "class_name": "Zeros"}, "data_format": "channels_last", "filters": 160, "kernel_regularizer": {"config": {"l1": 0.0, "l2": 3.9999998989515007e-05}, "class_name": "L1L2"}, "use_bias": false, "kernel_initializer": {"config": {"mode": "fan_in", "distribution": "normal", "seed": null, "scale": 2.0}, "class_name": "VarianceScaling"}, "bias_constraint": null, "bias_regularizer": null, "strides": [1, 1], "kernel_size": [1, 1], "activation": "linear", "kernel_constraint": null, "dilation_rate": [1, 1], "padding": "same", "activity_regularizer": null, "trainable": true, "name": "block_13_project"}, "name": "block_13_project", "inbound_nodes": [[["block_13_depthwise_relu", 0, 0, {}]]], "class_name": "Conv2D"}, {"config": {"center": true, "axis": -1, "beta_initializer": {"config": {}, "class_name": "Zeros"}, "gamma_initializer": {"config": {}, "class_name": "Ones"}, "name": "block_13_project_BN", "beta_constraint": null, "momentum": 0.999, "beta_regularizer": null, "gamma_constraint": null, "moving_mean_initializer": {"config": {}, "class_name": "Zeros"}, "moving_variance_initializer": {"config": {}, "class_name": "Ones"}, "scale": true, "epsilon": 0.001, "gamma_regularizer": null, "trainable": true}, "name": "block_13_project_BN", "inbound_nodes": [[["block_13_project", 0, 0, {}]]], "class_name": "BatchNormalization"}, {"config": {"bias_initializer": {"config": {}, "class_name": "Zeros"}, "data_format": "channels_last", "filters": 960, "kernel_regularizer": {"config": {"l1": 0.0, "l2": 3.9999998989515007e-05}, "class_name": "L1L2"}, "use_bias": false, "kernel_initializer": {"config": {"mode": "fan_in", "distribution": "normal", "seed": null, "scale": 2.0}, "class_name": "VarianceScaling"}, "bias_constraint": null, "bias_regularizer": null, "strides": [1, 1], "kernel_size": [1, 1], "activation": "linear", "kernel_constraint": null, "dilation_rate": [1, 1], "padding": "same", "activity_regularizer": null, "trainable": true, "name": "block_14_expand"}, "name": "block_14_expand", "inbound_nodes": [[["block_13_project_BN", 0, 0, {}]]], "class_name": "Conv2D"}, {"config": {"center": true, "axis": -1, "beta_initializer": {"config": {}, "class_name": "Zeros"}, "gamma_initializer": {"config": {}, "class_name": "Ones"}, "name": "block_14_expand_BN", "beta_constraint": null, "momentum": 0.999, "beta_regularizer": null, "gamma_constraint": null, "moving_mean_initializer": {"config": {}, "class_name": "Zeros"}, "moving_variance_initializer": {"config": {}, "class_name": "Ones"}, "scale": true, "epsilon": 0.001, "gamma_regularizer": null, "trainable": true}, "name": "block_14_expand_BN", "inbound_nodes": [[["block_14_expand", 0, 0, {}]]], "class_name": "BatchNormalization"}, {"config": {"max_value": 6.0, "name": "block_14_expand_relu", "trainable": true}, "name": "block_14_expand_relu", "inbound_nodes": [[["block_14_expand_BN", 0, 0, {}]]], "class_name": "ReLU"}, {"config": {"bias_initializer": {"config": {}, "class_name": "Zeros"}, "data_format": "channels_last", "depthwise_constraint": null, "use_bias": false, "bias_constraint": null, "depth_multiplier": 1, "strides": [1, 1], "kernel_size": [3, 3], "activation": "linear", "bias_regularizer": null, "dilation_rate": [1, 1], "depthwise_initializer": {"config": {"mode": "fan_avg", "distribution": "uniform", "seed": null, "scale": 1.0}, "class_name": "VarianceScaling"}, "padding": "same", "activity_regularizer": null, "trainable": true, "name": "block_14_depthwise", "depthwise_regularizer": {"config": {"l1": 0.0, "l2": 3.9999998989515007e-05}, "class_name": "L1L2"}}, "name": "block_14_depthwise", "inbound_nodes": [[["block_14_expand_relu", 0, 0, {}]]], "class_name": "DepthwiseConv2D"}, {"config": {"center": true, "axis": -1, "beta_initializer": {"config": {}, "class_name": "Zeros"}, "gamma_initializer": {"config": {}, "class_name": "Ones"}, "name": "block_14_depthwise_BN", "beta_constraint": null, "momentum": 0.999, "beta_regularizer": null, "gamma_constraint": null, "moving_mean_initializer": {"config": {}, "class_name": "Zeros"}, "moving_variance_initializer": {"config": {}, "class_name": "Ones"}, "scale": true, "epsilon": 0.001, "gamma_regularizer": null, "trainable": true}, "name": "block_14_depthwise_BN", "inbound_nodes": [[["block_14_depthwise", 0, 0, {}]]], "class_name": "BatchNormalization"}, {"config": {"max_value": 6.0, "name": "block_14_depthwise_relu", "trainable": true}, "name": "block_14_depthwise_relu", "inbound_nodes": [[["block_14_depthwise_BN", 0, 0, {}]]], "class_name": "ReLU"}, {"config": {"bias_initializer": {"config": {}, "class_name": "Zeros"}, "data_format": "channels_last", "filters": 160, "kernel_regularizer": {"config": {"l1": 0.0, "l2": 3.9999998989515007e-05}, "class_name": "L1L2"}, "use_bias": false, "kernel_initializer": {"config": {"mode": "fan_in", "distribution": "normal", "seed": null, "scale": 2.0}, "class_name": "VarianceScaling"}, "bias_constraint": null, "bias_regularizer": null, "strides": [1, 1], "kernel_size": [1, 1], "activation": "linear", "kernel_constraint": null, "dilation_rate": [1, 1], "padding": "same", "activity_regularizer": null, "trainable": true, "name": "block_14_project"}, "name": "block_14_project", "inbound_nodes": [[["block_14_depthwise_relu", 0, 0, {}]]], "class_name": "Conv2D"}, {"config": {"center": true, "axis": -1, "beta_initializer": {"config": {}, "class_name": "Zeros"}, "gamma_initializer": {"config": {}, "class_name": "Ones"}, "name": "block_14_project_BN", "beta_constraint": null, "momentum": 0.999, "beta_regularizer": null, "gamma_constraint": null, "moving_mean_initializer": {"config": {}, "class_name": "Zeros"}, "moving_variance_initializer": {"config": {}, "class_name": "Ones"}, "scale": true, "epsilon": 0.001, "gamma_regularizer": null, "trainable": true}, "name": "block_14_project_BN", "inbound_nodes": [[["block_14_project", 0, 0, {}]]], "class_name": "BatchNormalization"}, {"config": {"name": "block_14_add", "trainable": true}, "name": "block_14_add", "inbound_nodes": [[["block_13_project_BN", 0, 0, {}], ["block_14_project_BN", 0, 0, {}]]], "class_name": "Add"}, {"config": {"bias_initializer": {"config": {}, "class_name": "Zeros"}, "data_format": "channels_last", "filters": 960, "kernel_regularizer": {"config": {"l1": 0.0, "l2": 3.9999998989515007e-05}, "class_name": "L1L2"}, "use_bias": false, "kernel_initializer": {"config": {"mode": "fan_in", "distribution": "normal", "seed": null, "scale": 2.0}, "class_name": "VarianceScaling"}, "bias_constraint": null, "bias_regularizer": null, "strides": [1, 1], "kernel_size": [1, 1], "activation": "linear", "kernel_constraint": null, "dilation_rate": [1, 1], "padding": "same", "activity_regularizer": null, "trainable": true, "name": "block_15_expand"}, "name": "block_15_expand", "inbound_nodes": [[["block_14_add", 0, 0, {}]]], "class_name": "Conv2D"}, {"config": {"center": true, "axis": -1, "beta_initializer": {"config": {}, "class_name": "Zeros"}, "gamma_initializer": {"config": {}, "class_name": "Ones"}, "name": "block_15_expand_BN", "beta_constraint": null, "momentum": 0.999, "beta_regularizer": null, "gamma_constraint": null, "moving_mean_initializer": {"config": {}, "class_name": "Zeros"}, "moving_variance_initializer": {"config": {}, "class_name": "Ones"}, "scale": true, "epsilon": 0.001, "gamma_regularizer": null, "trainable": true}, "name": "block_15_expand_BN", "inbound_nodes": [[["block_15_expand", 0, 0, {}]]], "class_name": "BatchNormalization"}, {"config": {"max_value": 6.0, "name": "block_15_expand_relu", "trainable": true}, "name": "block_15_expand_relu", "inbound_nodes": [[["block_15_expand_BN", 0, 0, {}]]], "class_name": "ReLU"}, {"config": {"bias_initializer": {"config": {}, "class_name": "Zeros"}, "data_format": "channels_last", "depthwise_constraint": null, "use_bias": false, "bias_constraint": null, "depth_multiplier": 1, "strides": [1, 1], "kernel_size": [3, 3], "activation": "linear", "bias_regularizer": null, "dilation_rate": [1, 1], "depthwise_initializer": {"config": {"mode": "fan_avg", "distribution": "uniform", "seed": null, "scale": 1.0}, "class_name": "VarianceScaling"}, "padding": "same", "activity_regularizer": null, "trainable": true, "name": "block_15_depthwise", "depthwise_regularizer": {"config": {"l1": 0.0, "l2": 3.9999998989515007e-05}, "class_name": "L1L2"}}, "name": "block_15_depthwise", "inbound_nodes": [[["block_15_expand_relu", 0, 0, {}]]], "class_name": "DepthwiseConv2D"}, {"config": {"center": true, "axis": -1, "beta_initializer": {"config": {}, "class_name": "Zeros"}, "gamma_initializer": {"config": {}, "class_name": "Ones"}, "name": "block_15_depthwise_BN", "beta_constraint": null, "momentum": 0.999, "beta_regularizer": null, "gamma_constraint": null, "moving_mean_initializer": {"config": {}, "class_name": "Zeros"}, "moving_variance_initializer": {"config": {}, "class_name": "Ones"}, "scale": true, "epsilon": 0.001, "gamma_regularizer": null, "trainable": true}, "name": "block_15_depthwise_BN", "inbound_nodes": [[["block_15_depthwise", 0, 0, {}]]], "class_name": "BatchNormalization"}, {"config": {"max_value": 6.0, "name": "block_15_depthwise_relu", "trainable": true}, "name": "block_15_depthwise_relu", "inbound_nodes": [[["block_15_depthwise_BN", 0, 0, {}]]], "class_name": "ReLU"}, {"config": {"bias_initializer": {"config": {}, "class_name": "Zeros"}, "data_format": "channels_last", "filters": 160, "kernel_regularizer": {"config": {"l1": 0.0, "l2": 3.9999998989515007e-05}, "class_name": "L1L2"}, "use_bias": false, "kernel_initializer": {"config": {"mode": "fan_in", "distribution": "normal", "seed": null, "scale": 2.0}, "class_name": "VarianceScaling"}, "bias_constraint": null, "bias_regularizer": null, "strides": [1, 1], "kernel_size": [1, 1], "activation": "linear", "kernel_constraint": null, "dilation_rate": [1, 1], "padding": "same", "activity_regularizer": null, "trainable": true, "name": "block_15_project"}, "name": "block_15_project", "inbound_nodes": [[["block_15_depthwise_relu", 0, 0, {}]]], "class_name": "Conv2D"}, {"config": {"center": true, "axis": -1, "beta_initializer": {"config": {}, "class_name": "Zeros"}, "gamma_initializer": {"config": {}, "class_name": "Ones"}, "name": "block_15_project_BN", "beta_constraint": null, "momentum": 0.999, "beta_regularizer": null, "gamma_constraint": null, "moving_mean_initializer": {"config": {}, "class_name": "Zeros"}, "moving_variance_initializer": {"config": {}, "class_name": "Ones"}, "scale": true, "epsilon": 0.001, "gamma_regularizer": null, "trainable": true}, "name": "block_15_project_BN", "inbound_nodes": [[["block_15_project", 0, 0, {}]]], "class_name": "BatchNormalization"}, {"config": {"name": "block_15_add", "trainable": true}, "name": "block_15_add", "inbound_nodes": [[["block_14_add", 0, 0, {}], ["block_15_project_BN", 0, 0, {}]]], "class_name": "Add"}, {"config": {"bias_initializer": {"config": {}, "class_name": "Zeros"}, "data_format": "channels_last", "filters": 960, "kernel_regularizer": {"config": {"l1": 0.0, "l2": 3.9999998989515007e-05}, "class_name": "L1L2"}, "use_bias": false, "kernel_initializer": {"config": {"mode": "fan_in", "distribution": "normal", "seed": null, "scale": 2.0}, "class_name": "VarianceScaling"}, "bias_constraint": null, "bias_regularizer": null, "strides": [1, 1], "kernel_size": [1, 1], "activation": "linear", "kernel_constraint": null, "dilation_rate": [1, 1], "padding": "same", "activity_regularizer": null, "trainable": true, "name": "block_16_expand"}, "name": "block_16_expand", "inbound_nodes": [[["block_15_add", 0, 0, {}]]], "class_name": "Conv2D"}, {"config": {"center": true, "axis": -1, "beta_initializer": {"config": {}, "class_name": "Zeros"}, "gamma_initializer": {"config": {}, "class_name": "Ones"}, "name": "block_16_expand_BN", "beta_constraint": null, "momentum": 0.999, "beta_regularizer": null, "gamma_constraint": null, "moving_mean_initializer": {"config": {}, "class_name": "Zeros"}, "moving_variance_initializer": {"config": {}, "class_name": "Ones"}, "scale": true, "epsilon": 0.001, "gamma_regularizer": null, "trainable": true}, "name": "block_16_expand_BN", "inbound_nodes": [[["block_16_expand", 0, 0, {}]]], "class_name": "BatchNormalization"}, {"config": {"max_value": 6.0, "name": "block_16_expand_relu", "trainable": true}, "name": "block_16_expand_relu", "inbound_nodes": [[["block_16_expand_BN", 0, 0, {}]]], "class_name": "ReLU"}, {"config": {"bias_initializer": {"config": {}, "class_name": "Zeros"}, "data_format": "channels_last", "depthwise_constraint": null, "use_bias": false, "bias_constraint": null, "depth_multiplier": 1, "strides": [1, 1], "kernel_size": [3, 3], "activation": "linear", "bias_regularizer": null, "dilation_rate": [1, 1], "depthwise_initializer": {"config": {"mode": "fan_avg", "distribution": "uniform", "seed": null, "scale": 1.0}, "class_name": "VarianceScaling"}, "padding": "same", "activity_regularizer": null, "trainable": true, "name": "block_16_depthwise", "depthwise_regularizer": {"config": {"l1": 0.0, "l2": 3.9999998989515007e-05}, "class_name": "L1L2"}}, "name": "block_16_depthwise", "inbound_nodes": [[["block_16_expand_relu", 0, 0, {}]]], "class_name": "DepthwiseConv2D"}, {"config": {"center": true, "axis": -1, "beta_initializer": {"config": {}, "class_name": "Zeros"}, "gamma_initializer": {"config": {}, "class_name": "Ones"}, "name": "block_16_depthwise_BN", "beta_constraint": null, "momentum": 0.999, "beta_regularizer": null, "gamma_constraint": null, "moving_mean_initializer": {"config": {}, "class_name": "Zeros"}, "moving_variance_initializer": {"config": {}, "class_name": "Ones"}, "scale": true, "epsilon": 0.001, "gamma_regularizer": null, "trainable": true}, "name": "block_16_depthwise_BN", "inbound_nodes": [[["block_16_depthwise", 0, 0, {}]]], "class_name": "BatchNormalization"}, {"config": {"max_value": 6.0, "name": "block_16_depthwise_relu", "trainable": true}, "name": "block_16_depthwise_relu", "inbound_nodes": [[["block_16_depthwise_BN", 0, 0, {}]]], "class_name": "ReLU"}, {"config": {"bias_initializer": {"config": {}, "class_name": "Zeros"}, "data_format": "channels_last", "filters": 320, "kernel_regularizer": {"config": {"l1": 0.0, "l2": 3.9999998989515007e-05}, "class_name": "L1L2"}, "use_bias": false, "kernel_initializer": {"config": {"mode": "fan_in", "distribution": "normal", "seed": null, "scale": 2.0}, "class_name": "VarianceScaling"}, "bias_constraint": null, "bias_regularizer": null, "strides": [1, 1], "kernel_size": [1, 1], "activation": "linear", "kernel_constraint": null, "dilation_rate": [1, 1], "padding": "same", "activity_regularizer": null, "trainable": true, "name": "block_16_project"}, "name": "block_16_project", "inbound_nodes": [[["block_16_depthwise_relu", 0, 0, {}]]], "class_name": "Conv2D"}, {"config": {"center": true, "axis": -1, "beta_initializer": {"config": {}, "class_name": "Zeros"}, "gamma_initializer": {"config": {}, "class_name": "Ones"}, "name": "block_16_project_BN", "beta_constraint": null, "momentum": 0.999, "beta_regularizer": null, "gamma_constraint": null, "moving_mean_initializer": {"config": {}, "class_name": "Zeros"}, "moving_variance_initializer": {"config": {}, "class_name": "Ones"}, "scale": true, "epsilon": 0.001, "gamma_regularizer": null, "trainable": true}, "name": "block_16_project_BN", "inbound_nodes": [[["block_16_project", 0, 0, {}]]], "class_name": "BatchNormalization"}, {"config": {"bias_initializer": {"config": {}, "class_name": "Zeros"}, "data_format": "channels_last", "filters": 1280, "kernel_regularizer": {"config": {"l1": 0.0, "l2": 3.9999998989515007e-05}, "class_name": "L1L2"}, "use_bias": false, "kernel_initializer": {"config": {"mode": "fan_in", "distribution": "normal", "seed": null, "scale": 2.0}, "class_name": "VarianceScaling"}, "bias_constraint": null, "bias_regularizer": null, "strides": [1, 1], "kernel_size": [1, 1], "activation": "linear", "kernel_constraint": null, "dilation_rate": [1, 1], "padding": "valid", "activity_regularizer": null, "trainable": true, "name": "Conv_1"}, "name": "Conv_1", "inbound_nodes": [[["block_16_project_BN", 0, 0, {}]]], "class_name": "Conv2D"}, {"config": {"center": true, "axis": -1, "beta_initializer": {"config": {}, "class_name": "Zeros"}, "gamma_initializer": {"config": {}, "class_name": "Ones"}, "name": "Conv_1_bn", "beta_constraint": null, "momentum": 0.999, "beta_regularizer": null, "gamma_constraint": null, "moving_mean_initializer": {"config": {}, "class_name": "Zeros"}, "moving_variance_initializer": {"config": {}, "class_name": "Ones"}, "scale": true, "epsilon": 0.001, "gamma_regularizer": null, "trainable": true}, "name": "Conv_1_bn", "inbound_nodes": [[["Conv_1", 0, 0, {}]]], "class_name": "BatchNormalization"}, {"config": {"max_value": 6.0, "name": "out_relu", "trainable": true}, "name": "out_relu", "inbound_nodes": [[["Conv_1_bn", 0, 0, {}]]], "class_name": "ReLU"}, {"config": {"data_format": "channels_last", "name": "global_average_pool", "trainable": true}, "name": "global_average_pool", "inbound_nodes": [[["out_relu", 0, 0, {}]]], "class_name": "GlobalAveragePooling2D"}, {"config": {"bias_initializer": {"config": {}, "class_name": "Zeros"}, "bias_constraint": null, "kernel_constraint": null, "kernel_regularizer": null, "use_bias": true, "kernel_initializer": {"config": {"mode": "fan_avg", "distribution": "uniform", "seed": null, "scale": 1.0}, "class_name": "VarianceScaling"}, "activity_regularizer": null, "bias_regularizer": null, "name": "dense_1", "activation": "softmax", "units": 10, "trainable": true}, "name": "dense_1", "inbound_nodes": [[["global_average_pool", 0, 0, {}]]], "class_name": "Dense"}]}, "keras_version": "2.2.2", "class_name": "Model"}